best_regression_model/model.pt (torch, 67383 bytes, 54 tensors)

sender.sos_embedding f4 [16]
-0.20613037 0.28676614 0.3528008 0.47229943 0.34796482 0.31222773 0.16317281 -0.042197514
-0.27221888 0.07979439 0.5021195 0.48566103 -0.32935688 -0.3835635 0.32435435 0.30781016
00000000: d713 53be 03d3 923e 4ea2 b43e 3bd1 f13e
00000010: 7228 b23e 50dc 9f3e c616 273e 4dd7 2cbd
00000020: 4660 8bbe 3e6b a33d e78a 003f 90a8 f83e
00000030: 77a1 a8be 6f62 c4be c611 a63e 4b99 9d3e

sender.agent.fc1.weight f4 [16, 14]
-0.16328497 -0.033998296 -0.18209568 0.12933554 0.033385206 0.07185633 0.06902033 0.12912667
-0.2169307 -0.0636284 0.23385735 0.09145635 -0.07883265 0.017414438 -0.1694467 0.9040232
0.17560309 0.22360471 0.16926564 0.036000855 0.011543453 -0.070163704 0.94357073 0.3277482
0.019589381 0.013785465 0.10175111 -0.16176294 0.12937005 -0.8838603 -0.7603142 -0.3235403
-0.11308088 -0.01543544 0.041156832 -0.23234893 -0.8170655 -0.61969584 -0.36694968 -0.33420107
-0.18390453 0.0067726057 0.046995826 0.70787275 0.31344992 0.10933835 0.22825187 0.01982328
0.06075006 0.024020672 0.68195426 0.54399914 0.38247663 -0.050421923 0.043386526 0.14853236
-0.11018913 0.69574374 0.19025263 0.3008408 -0.0073773554 0.009877441 0.2530461 0.11798856
0.95985264 0.5580927 0.28410468 0.35832134 0.20681691 -0.10335247 0.19964765 0.85029054
0.46243572 0.0012753198 -0.008247038 -0.053811565 0.022661055 0.12292196 0.7034444 0.26642787
-0.04016767 -0.12627468 -0.31783864 -0.26377144 -0.18436089 -0.32323882 -0.016998347 0.18680052
0.083683 0.11298802 0.11286863 -0.21268356 -0.38092053 0.029006222 0.13185889 -0.11108202
0.27948385 0.16730751 0.039380357 0.45369044 0.43116742 0.06755128 0.1947371 -0.06551798
-0.12522638 0.23292308 0.42745748 0.08601472 -0.20914426 -0.1665626 -0.34377354 -0.1340587
-0.24837066 -0.84758526 -0.40618804 -0.27498662 -0.21270713 0.023938926 0.0025946754 -0.10210735
-0.9227089 -0.2280296 -0.22614461 -0.34218514 -0.063125305 -0.08238256 -0.14718103 0.8124949
0.4488205 0.18608505 0.05601881 0.07592536 0.05410448 -0.18633978 0.8790897 0.45938572
0.30639675 0.17630032 0.08010568 0.17653313 -0.04330459 0.47314832 0.41753137 0.27258587
-0.06429077 0.18626945 0.036269262 0.24114054 0.024384912 0.32074767 0.17279474 0.17261949
0.038592853 0.053924695 -0.1865757 -0.8488685 -0.5589646 -0.1498594 -0.14782652 -0.1252448
0.0006057492 0.17861691 -0.9024303 -0.4526211 -0.12990217 -0.086342685 -0.028755683 -0.24356103
-0.00340042 0.47135806 0.17053026 -0.07953726 -0.043960728 0.057255358 -0.14645413 0.025371091
0.63808453 0.046039075 0.0116179185 -0.027315862 0.11167516 -0.0712252 0.09133982 0.7963861
0.36313626 0.22116022 0.012917792 0.11088133 -0.11820477 0.083614714 0.6826788 0.34101716
0.17038803 0.04095481 0.18057823 -0.08763128 -0.0738169 1.135033 0.65340185 0.6161655
0.3390789 0.14683485 0.253878 0.09877719 1.0678532 0.91657984 0.7327527 0.36186907
0.2763334 0.32321024 -0.12280353 -0.5043706 0.19456904 0.22749586 0.07190188 0.10930746
-0.009559993 -0.10521826 -0.33216685 0.10763694 -0.09951438 0.09396879 -0.063517146 -0.106060416
00000000: 2d34 27be cc41 0bbd 4a77 3abe 8970 043e
00000010: edbe 083d 6929 933d 885a 8d3d c839 043e
00000020: 1523 5ebe 9b4f 82bd 4d78 6f3e 784d bb3d
00000030: 0373 a1bd b9a8 8e3c 7083 2dbe 106e 673f
00000040: 4cd1 333e a2f8 643e f953 2d3e a275 133d
00000050: c020 3d3c fdb1 8fbd da8d 713f 9dce a73e
00000060: e979 a03c 6edc 613c e362 d03d 2fa5 25be
00000070: 9579 043e ab44 62bf f4a3 42bf 13a7 a5be
00000080: f396 e7bd ede4 7cbc 1194 283d e1ec 6dbe
00000090: 342b 51bf 63a4 1ebf d4e0 bbbe 671c abbe
000000a0: 7851 3cbe bcec dd3b b27e 403d 2637 353f
000000b0: 827c a03e c9ec df3d dcba 693e 6e64 a23c
000000c0: 0ed5 783d 00c7 c43c 8e94 2e3f 8743 0b3f
000000d0: fad3 c33e 3887 4ebd 12b6 313d de18 183e
000000e0: d7aa e1bd 431c 323f 96d1 423e ce07 9a3e
000000f0: bebd f1bb fed4 213c 428f 813e fca3 f13d
00000100: e7b8 753f 2adf 0e3f 2b76 913e e575 b73e
00000110: d0c7 533e 76aa d3bd 6f70 4c3e a4ac 593f
00000120: 60c4 ec3e a228 a73a 961e 07bc 8469 5cbd
00000130: ada3 b93c 82be fb3d ef14 343f 3c69 883e
00000140: db86 24bd 264e 01be bfbb a2be 0d0d 87be
00000150: 1ac9 3cbe 8f7f a5be 1e40 8bbc a348 3f3e
00000160: fe61 ab3d 4366 e73d ab27 e73d b8c9 59be
00000170: 0408 c3be 759e ed3c 0406 073e f87e e3bd
00000180: 8218 8f3e a952 2b3e 4c4d 213d 1d4a e83e
00000190: fac1 dc3e 5358 8a3d 2a69 473e 4a2e 86bd
000001a0: 583b 00be 6383 6e3e b5db da3e 7c28 b03d
000001b0: ea29 56be 638f 2abe 1603 b0be af46 09be
000001c0: e154 7ebe 59fb 58bf e1f7 cfbe 0ccb 8cbe
000001d0: e6cf 59be 911b c43c 6e0b 2a3b a91d d1bd
000001e0: a736 6cbf 9780 69be 7492 67be e432 afbe
000001f0: d747 81bd 30b8 a8bd a0b6 16be aaff 4f3f
00000200: cdcb e53e 148d 3e3e fb73 653d c17e 9b3d
00000210: a99c 5d3d dbcf 3ebe 060c 613f 9b34 eb3e
00000220: 09e0 9c3e 1288 343e 720e a43d 1ac5 343e
00000230: 2760 31bd 7f40 f23e acc6 d53e 6090 8b3e
00000240: e1aa 83bd 6bbd 3e3e 148f 143d 8ced 763e
00000250: dec2 c73c 0a39 a43e 1bf1 303e 2ac3 303e
00000260: 8a13 1e3d 24e0 5c3d b30d 3fbe 724f 59bf
00000270: 4e18 0fbf be74 19be d65f 17be 2c40 00be
00000280: 24cb 1e3a 5ae7 363e ac05 67bf f4bd e7be
00000290: 1305 05be 6fd4 b0bd 0a91 ebbc 1068 79be
000002a0: 95d9 5ebb d855 f13e 7c9f 2e3e 6ee4 a2bd
000002b0: 2a10 34bd 9884 6a3d 12f8 15be 09d7 cf3c
000002c0: 8259 233f 7893 3c3d 1559 3e3c 84c5 dfbc
000002d0: f2b5 e43d 85de 91bd 5f10 bb3d f6df 4b3f
000002e0: ffec b93e d377 623e 26a5 533c c015 e33d
000002f0: 5815 f2bd 313e ab3d 0ac4 2e3f cd99 ae3e
00000300: 337a 2e3e 3bc0 273d 80e9 383e 0778 b3bd
00000310: 512d 97bd c348 913f 5845 273f 06bd 1d3f
00000320: c09b ad3e e05b 163e 4cfc 813e b24b ca3d
00000330: 6aaf 883f faa4 6a3f ae95 3b3f e746 b93e
00000340: 927b 8d3e d07b a53e 6b80 fbbd 6f1e 01bf
00000350: 1b3d 473e adf4 683e 4b41 933d 97dc df3d
00000360: 84a1 1cbc ac7c d7bd c611 aabe c270 dc3d
00000370: 32ce cbbd b572 c03d 4715 82bd 3436 d9bd

sender.agent.fc1.bias f4 [16]
0.24338634 -0.05985218 -0.4858843 -0.17722599 -0.007281034 -0.15702459 0.53291094 -0.7605571
0.007102352 -0.3751158 -0.41449094 -0.03425683 0.14565952 -0.49774486 0.2957968 0.33775467
00000000: 453a 793e 8f27 75bd d4c5 f8be bb7a 35be
00000010: bd95 eebb 0ecb 20be da6c 083f dfb3 42bf
00000020: d9ba e83b 2e0f c0be 2838 d4be e450 0cbd
00000030: c527 153e 6ad8 febe ae72 973e 2eee ac3e

sender.hidden_to_output.weight f4 [13, 16]
-0.81110644 -1.3114208 -2.191443 -6.082749 -2.3268945 1.5755794 0.6172899 -0.6696034
1.8245343 -3.5885787 1.4819976 0.011616251 3.018228 -0.18031406 1.9377364 -1.0947326
-1.1568813 0.0077698887 1.5745205 0.7627447 0.41911057 -0.16010144 -1.6455644 1.529637
-0.34674957 0.2303412 0.23473047 -0.16073576 -0.29339486 0.56965697 -1.062039 -0.15044229
-0.42877764 0.77853674 -0.8769507 0.31876275 0.7337675 1.4977952 -0.27574375 0.37870422
-0.62976825 0.6031921 0.4036452 -1.2012513 1.1292496 0.8465759 0.5259497 -1.3792231
1.113577 -1.0117321 1.158309 -0.46879172 -0.48186216 -0.95328945 1.0729681 -1.1070933
1.3057891 -0.3931884 -0.38382676 1.0840323 -0.68000275 -1.2712401 -1.6172829 1.5528821
-0.56346583 -0.94042885 1.7350029 0.17621276 0.24242847 -1.3432379 -0.31353027 0.83882284
0.54285705 -0.102847345 0.76630497 1.7422614 -0.5222743 0.025023121 -1.8620338 0.96052825
-1.0407481 0.8059523 0.47296464 0.4196711 0.4697004 0.6239471 -1.2996675 1.0121809
-0.95610446 0.41729555 0.3718227 -0.6658821 -0.0014058516 0.6900215 0.04236675 -1.0332286
0.106587835 0.95136267 -3.014896 0.56363827 0.46245283 1.3543725 0.1521694 -0.03355785
-0.66748285 0.68856424 0.42673844 -0.9841325 1.5629199 0.5976928 2.0155435 -1.1501684
0.46623597 -1.0031585 1.3463656 -0.19239609 0.08051914 -0.9857498 0.7635157 -0.089952484
0.9742449 -0.45880115 0.21716635 1.3201681 -0.798829 -0.4540147 -1.5753825 1.4153234
-1.2514484 0.32256785 0.41347986 0.2539384 0.52979696 0.27797636 -1.2424477 1.4197608
-0.5036855 0.4054316 0.2783199 -0.5779288 0.14699955 0.4443252 -0.28061476 -0.9033527
1.7778567 -1.8421737 0.62733316 -0.352041 -1.2905097 -1.0149964 1.7270632 -1.5486854
1.4776037 -1.3594109 -1.1751894 1.0924461 -0.79587024 -1.9105006 -1.7920477 1.5418948
0.9400107 -0.77653325 0.9036962 -0.34226665 -0.41345638 -0.8957878 0.90422034 -0.78463864
1.049684 -0.6270419 -0.28682324 0.95980847 -0.62759197 -0.7778203 -1.6011801 1.1230001
-1.0578138 0.24741335 1.4394798 0.45553726 0.25375947 0.13035548 -1.312986 1.5158253
-0.4536249 0.15436113 0.2759608 -0.17668563 -0.07873497 0.43416065 -0.69799477 -0.34769288
-0.9289782 0.5419459 0.5111094 0.18940867 0.4216016 0.4527581 -1.1142873 1.1476866
-0.45784727 0.3715418 0.61247987 -0.35659152 0.09242901 0.35670954 -0.17896377 -0.8543965
00000000: aca4 4fbf a3dc a7bf 9a40 0cc0 e1a5 c2c0
00000010: d7eb 14c0 96ac c93f b606 1e3f 216b 2bbf
00000020: 578a e93f 46ab 65c0 19b2 bd3f 1752 3e3c
00000030: a62a 4140 40a4 38be bf07 f83f 3320 8cbf
00000040: b014 94bf 8d9a fe3b e389 c93f 3d43 433f
00000050: a995 d63e a2f1 23be dba1 d2bf 25cb c33f
00000060: 2989 b1be 90de 6b3e 2f5d 703e ea97 24be
00000070: da37 96be 0ad5 113f e5f0 87bf 8b0d 1abe
00000080: be88 dbbe 2f4e 473f d77f 60bf df34 a33e
00000090: 30d8 3b3f c1b7 bf3f 492e 8dbe 85e5 c13e
000000a0: 7e38 21bf cc6a 1a3f 95aa ce3e 9ac2 99bf
000000b0: 408b 903f 33b9 583f a4a4 063f 628a b0bf
000000c0: b189 8e3f 7080 81bf 7843 943f 7805 f0be
000000d0: a3b6 f6be c70a 74bf 0557 893f 3cb5 8dbf
000000e0: 1924 a73f fd4f c9be f184 c4be 92c1 8a3f
000000f0: a914 2ebf ffb7 a2bf 2003 cfbf d7c4 c63f
00000100: 4c3f 10bf f2bf 70bf 9314 de3f 1e71 343e
00000110: 2b3f 783e 38ef abbf 0a87 a0be 18bd 563f
00000120: aef8 0a3f a1a1 d2bd 902c 443f 6c02 df3f
00000130: c5b3 05bf 4afd cc3c 2057 eebf 2ee5 753f
00000140: 3c37 85bf e452 4e3f 6c28 f23e 21df d63e
00000150: 927c f03e ffba 1f3f 815b a6bf 258f 813f
00000160: 43c3 74bf c3a7 d53e 8c5f be3e 4077 2abf
00000170: 8d44 b8ba 40a5 303f c288 2d3d d640 84bf
00000180: b94a da3d 818c 733f 0ef4 40c0 994a 103f
00000190: 9ec6 ec3e 145c ad3f 4cd2 1b3e f573 09bd
000001a0: 28e0 2abf bf45 303f 767d da3e 1cf0 7bbf
000001b0: c20d c83f 6502 193f aafe 0040 b838 93bf
000001c0: 7bb6 ee3e 7f67 80bf b555 ac3f 7b03 45be
000001d0: 38e7 a43d 195a 7cbf c475 433f 0239 b8bd
000001e0: 1d68 793f fce7 eabe db60 5e3e 45fb a83f
000001f0: 0f80 4cbf 9d74 e8be 22a6 c9bf 5129 b53f
00000200: 762f a0bf 9d27 a53e a2b3 d33e 3704 823e
00000210: c6a0 073f eb52 8e3e 8708 9fbf b9ba b53f
00000220: 88f1 00bf bb94 cf3e f27f 8e3e 24f3 13bf
00000230: 0d87 163e 987e e33e bdac 8fbe 1f42 67bf
00000240: cf90 e33f 59cc ebbf e898 203f b83e b4be
00000250: 6c2f a5bf 67eb 81bf 6810 dd3f 533b c6bf
00000260: 1e22 bd3f 2d01 aebf 9b6c 96bf 46d5 8b3f
00000270: 27be 4bbf 498b f4bf d261 e5bf cf5c c53f
00000280: 8ba4 703f e2ca 46bf a258 673f 933d afbe
00000290: 8eb0 d3be 5952 65bf fc7a 673f 14de 48bf
000002a0: 0c5c 863f d185 20bf 7fda 92be 02b6 753f
000002b0: dea9 20bf 3b1f 47bf 78f3 ccbf 78be 8f3f
000002c0: 7166 87bf ed59 7d3e e040 b83f 2e3c e93e
000002d0: c3ec 813e e87b 053e ed0f a8bf 9006 c23f
000002e0: 8641 e8be d810 1e3e bc4a 8d3e 14ed 34be
000002f0: cd3f a1bd 4e4a de3e c9af 32bf cd04 b2be
00000300: 84d1 6dbf f7bc 0a3f 11d8 023f 59f4 413e
00000310: 2adc d73e e9cf e73e f7a0 8ebf 65e7 923f
00000320: f56a eabe ba3a be3e 7bcb 1c3f 2a93 b6be
00000330: 6c4b bd3d a2a2 b63e 4742 37be bbb9 5abf

sender.hidden_to_output.bias f4 [13]
-4.217765 0.38187954 -0.53266716 0.8541043 0.18966345 0.27330285 -0.93914026 1.0114167
0.4743764 0.7612777 0.84689474 -0.060319193 0.06932321
00000000: eef7 86c0 b785 c33e e05c 08bf 94a6 5a3f
00000010: 2337 423e 5aee 8b3e 7f6b 70bf 1a76 813f
00000020: 77e1 f23e 18e3 423f 18ce 583f 4211 77bd
00000030: 54f9 8d3d

sender.embedding.weight f4 [16, 13]
-0.05537602 0.86636966 -0.008186136 -0.48654082 0.8325123 0.5530156 -0.4993178 0.025233926
0.8590772 -0.4685803 -0.09137298 0.60493743 0.5656377 0.4142686 0.0025693383 0.12836087
-0.5525547 -0.19988494 -0.07089678 0.48070726 -0.14784361 -0.085940674 -0.93155533 -0.51094353
-0.18549745 -0.3103062 0.35355452 -0.14676224 0.056223646 -0.5216327 -0.3556763 -0.13101828
0.2872517 -0.51758933 -0.13765223 -0.8347322 -0.34380028 -0.35411808 -0.028963828 0.78291744
-5.7627553e-06 0.19694936 -0.80640405 -0.63707155 0.08895052 0.5969173 -0.2633529 -0.034157854
-0.8514213 -0.47321123 -0.27083072 -0.19793193 0.22990686 -0.17630665 0.12920348 -0.6590094
-0.5113693 0.1128794 0.3238435 -0.56929624 -0.19800456 -0.87990683 -0.6837039 -0.21969992
-0.2865147 0.951187 -0.3818617 0.32876375 -0.45515004 -0.2036691 0.031429317 0.8217204
-0.5805173 -0.1978032 -0.56761324 -0.58086973 -0.36287194 0.08785665 0.7290641 -0.13033566
0.31752566 -0.58619666 -0.4585617 0.024836509 0.4431584 -0.41410962 -0.0624003 -1.1569372
-0.80617046 -0.3459825 -0.20661452 -0.3657147 0.849574 0.27108 -0.78213817 -0.07300263
0.7932927 -0.25654778 -0.1625545 0.8619716 -0.819529 -0.60015804 0.7411529 0.94506735
-0.4288587 -0.036323246 -0.35238165 1.1202763 0.42659643 -0.22110504 -0.28458565 0.88062984
0.12877034 1.1909912 0.78178847 -0.18067338 -0.15036887 -0.102114566 -0.8241964 -0.24138582
0.09440705 -0.47674254 -0.4628878 0.32021552 -0.09316559 -0.8274952 0.6907784 0.25568038
-0.8730384 -0.85399705 0.17210613 -0.3576126 0.26886508 -0.3574439 -0.43214208 -0.09792359
0.2842391 -0.53965306 0.17171626 -0.81135976 -0.6950161 0.024131536 -0.055032298 0.51774865
-0.07883871 0.109951794 -0.5748633 -0.29775047 0.23592436 0.44285136 -0.6936739 -0.21399388
-0.55216616 -0.6136394 -0.016115967 0.15860018 -0.36481556 0.5295015 -0.46712154 0.655425
0.40423027 0.03720163 -0.35808194 0.39661267 0.3143529 0.41599235 0.5388366 0.0014215999
0.37543586 -0.658359 0.60993534 0.008205295 0.8012729 0.6005911 0.3202801 -0.5656741
0.89568245 0.1588894 0.81759083 0.5414883 0.51469266 0.32515556 0.8122307 -0.6296617
0.23218103 -1.1775378 -0.41768748 -0.1414587 0.47691023 -0.7099759 -0.3726524 -0.8652942
-0.5569936 -0.27640614 -0.36598042 0.24221312 -0.12711856 0.11659848 -0.61465174 -0.48504582
-0.014098817 0.74795395 -0.6869481 -0.07489695 -0.646429 -0.7471367 -0.30870962 -0.30027118
00000000: f7d1 62bd 67ca 5d3f 251f 06bc e11b f9be
00000010: 871f 553f 6e92 0d3f 95a6 ffbe 61b7 ce3c
00000020: 7cec 5b3f c2e9 efbe c221 bbbd 2edd 1a3f
00000030: a2cd 103f 041b d43e 5862 283b 0871 033e
00000040: 3a74 0dbf a3ae 4cbe 5532 91bd 431f f63e
00000050: 5164 17be aa01 b0bd 697a 6ebf 32cd 02bf
00000060: 0bf3 3dbe 74e0 9ebe 1905 b53e d748 16be
00000070: c44a 663d b889 05bf 341b b6be a829 06be
00000080: a812 933e bc80 04bf b5f4 0cbe 02b1 55bf
00000090: 9706 b0be f74e b5be 8d45 edbc 476d 483f
000000a0: b15d c1b6 18ad 493e 7f70 4ebf 1f17 23bf
000000b0: b12b b63d 92cf 183f 31d6 86be 1be9 0bbd
000000c0: bff6 59bf be48 f2be 53aa 8abe abae 4abe
000000d0: b46c 6b3e bb89 34be eb4d 043e d7b4 28bf
000000e0: 19e9 02bf 512d e73d d1ce a53e 66bd 11bf
000000f0: b5c1 4abe 9341 61bf 3807 2fbf 04f9 60be
00000100: 0eb2 92be fe80 733f 6083 c3be b953 a83e
00000110: 6d09 e9be a28e 50be 07bc 003d 455c 523f
00000120: c89c 14bf ec8c 4abe 1a4f 11bf e1b3 14bf
00000130: 5aca b9be 30ee b33d f2a3 3a3f b676 05be
00000140: b992 a23e fc10 16bf 99c8 eabe ef75 cb3c
00000150: a8e5 e23e 2d06 d4be 7597 7fbd 8516 94bf
00000160: 3061 4ebf 9e24 b1be c292 53be f53e bbbe
00000170: af7d 593f ffca 8a3e 353a 48bf 6782 95bd
00000180: 3b15 4b3f 3b5a 83be b074 26be 2caa 5c3f
00000190: a7cc 51bf f5a3 19bf 32bc 3d3f efef 713f
000001a0: 5e93 dbbe afc7 14bd 5e6b b4be 3765 8f3f
000001b0: d96a da3e 5c69 62be 36b5 91be f570 613f
000001c0: 5fdc 033e 6672 983f 4a23 483f 7102 39be
000001d0: 4cfa 19be 7121 d1bd 89fe 52bf d82d 77be
000001e0: 7c58 c13d 9917 f4be a1ff ecbe 4af3 a33e
000001f0: 9acd bebd bad6 53bf dad6 303f 8ae8 823e
00000200: 727f 5fbf 8d9f 5abf 973c 303e 0019 b7be
00000210: afa8 893e e302 b7be ba41 ddbe 2a8c c8bd
00000220: ca87 913e b426 0abf 63d6 2f3e 46b5 4fbf
00000230: 93ec 31bf 80af c53c 8c69 61bd 2d8b 043f
00000240: 3176 a1bd 682e e13d 3e2a 13bf c072 98be
00000250: 2896 713e 6abd e23e 9d94 31bf 3621 5bbe
00000260: c35a 0dbf 7917 1dbf a205 84bc 1668 223e
00000270: 1bc9 babe 698d 073f 8e2a efbe efc9 273f
00000280: 45f7 ce3e bd60 183d 8456 b7be d110 cb3e
00000290: ddf2 a03e f3fc d43e 32f1 093f fa54 ba3a
000002a0: 2139 c03e 378a 28bf b924 1c3f 806f 063c
000002b0: 3920 4d3f 57c0 193f c1fb a33e 05d0 10bf
000002c0: 724b 653f e7b3 223e a24d 513f fa9e 0a3f
000002d0: e6c2 033f ca7a a63e 5aee 4f3f 8231 21bf
000002e0: ddc0 6d3e 8fb9 96bf 22db d5be 8dda 10be
000002f0: 942d f43e fbc0 35bf 4ccc bebe ec83 5dbf
00000300: 2297 0ebf 1b85 8dbe c961 bbbe b706 783e
00000310: 5e2b 02be 2fcb ee3d d159 1dbf ed57 f8be
00000320: b9fe 66bc e979 3f3f d5db 2fbf 9263 99bd
00000330: 5f7c 25bf 5a44 3fbf 300f 9ebe 25bd 99be

sender.embedding.bias f4 [16]
-0.37497297 0.22337508 0.3503708 0.43718475 0.038432434 0.2630093 0.2813301 -0.3122068
-0.3864067 0.24232738 0.20650437 0.3063921 -0.37605038 -0.35905966 0.42880988 0.373146
00000000: 75fc bfbe 70bc 643e cd63 b33e aed6 df3e
00000010: 546b 1d3d 28a9 863e 800a 903e 92d9 9fbe
00000020: 19d7 c5be ab24 783e e275 533e 6ddf 9c3e
00000030: ad89 c0be abd6 b7be f88c db3e fe0c bf3e

sender.cell.weight_ih f4 [48, 16]
-0.9193057 0.21048403 0.327555 0.23156144 -0.6233374 0.07837177 -0.16878629 -1.197979
0.006253243 0.8893857 -0.18977782 0.11169827 -0.45492372 0.14456607 0.18383753 0.20384043
0.044108786 -0.15349993 0.16913238 -0.29129723 -0.15610255 -0.29513025 -0.28787622 -0.08721142
0.12432306 -0.8531686 -0.076347776 -0.025697906 0.10106478 0.6354021 -0.45365256 -0.26655522
-0.71145743 0.2456709 0.32696587 0.50713044 -0.43064335 0.48744237 0.10759966 -0.84981185
0.072114706 0.83779764 0.338168 0.17343248 -0.37314802 -0.08225629 0.2289515 0.071413726
-0.57219964 0.51597065 0.47334206 0.5681236 0.22453344 0.67211777 0.42063466 -0.4663268
-0.4794325 0.7448889 0.5463411 0.33631104 -0.7272577 -0.5263998 0.4788431 0.2635869
-1.5308013 0.40743476 0.39942443 0.7212932 -0.40273964 0.7321761 0.20725092 -1.5045046
-0.13751265 1.2672437 0.53478557 0.30131695 -0.7985245 -0.683056 0.49307618 0.5091663
0.17446752 0.271584 -0.09880831 0.26990396 0.25622442 -0.18841656 -0.13146578 0.030503986
-0.121590704 -0.5887261 -0.08023262 0.15196908 0.19708723 0.019900352 -0.20659241 -0.34687364
-1.109804 0.7928892 0.41786143 0.38114026 -0.5392185 0.75407887 0.19114551 -1.3129506
-0.04170049 1.3733314 0.5295499 0.56552744 -0.73635775 -0.6849904 0.33528107 0.74579704
-0.73375106 0.757206 0.7694346 0.71480185 -0.78203726 0.2083517 0.3829898 -1.2899337
-0.18782881 1.238204 0.40306327 0.74190676 -0.89228576 -0.5593042 0.21665397 0.608209
-0.48872674 -0.06552225 -0.04582753 0.14993174 -0.18357319 0.014411185 -0.18330242 -0.5188074
0.33121523 0.66502064 -0.0476858 0.19293147 -0.24838333 0.2237091 -0.08770028 0.048930895
-0.6972117 0.21528776 -0.025267359 0.2725673 0.22605017 0.15407157 0.029265363 -0.6438927
0.021418184 1.0915227 0.11760268 0.13050406 -0.34717673 -0.3598177 -0.04618523 0.34912363
-1.2853446 0.3225147 0.19988705 0.13447581 -0.4039674 -0.12634759 0.11409443 -1.5436784
0.100717306 1.1672142 -0.004346022 0.0255124 -0.38991424 -0.24353553 0.14294903 0.40098462
0.03147254 0.2804085 0.3001813 0.43908218 -0.0491731 -0.028502563 0.6493451 0.07084852
-0.25550082 -0.49170303 0.055974666 -0.11379645 0.19651607 -0.066032924 0.3886549 0.20542616
0.4736899 -0.5127909 -0.44255784 -0.17110492 -0.45175445 -0.2758954 -0.2682749 0.4115374
0.21213996 -0.38293535 -0.28006357 -0.37387082 0.37697724 0.62918603 -0.23653035 -0.03954998
-0.59000075 0.18141983 -0.26961508 -0.27754918 -0.2330281 -0.28893405 -0.12465862 -0.64196014
0.37382942 0.8967817 -0.32471675 -0.094539076 0.39017293 0.010624862 -0.063918725 -0.4395565
0.22678825 0.0007685372 -0.12461198 -0.25763503 0.60925496 -0.13646068 -0.11694529 0.2670329
-0.06822263 -0.5641943 -0.32659358 -0.32301864 0.11893069 0.29480943 -0.023605268 -0.29271895
0.09993924 -0.12823914 0.22133133 0.060304824 -0.4604594 -0.13488686 -0.2224044 -0.3645745
0.10029337 -0.2898748 -0.08048115 0.06269704 -0.1935663 0.40248412 0.10262223 -0.21197987
00000000: 9e57 6bbf 2089 573e 4ab5 a73e 711e 6d3e
00000010: 0a93 1fbf 6181 a03d 50d6 2cbe 6057 99bf
00000020: 01e8 cc3b c8ae 633f 1e55 42be 10c2 e43d
00000030: c3eb e8be 2109 143e e83f 3c3e 8cbb 503e
00000040: 6aab 343d 162f 1dbe 0a31 2d3e e924 95be
00000050: 59d9 1fbe 501b 97be 8364 93be e79b b2bd
00000060: 179d fe3d 4269 5abf 395c 9cbd 6a84 d2bc
00000070: 0dfb ce3d b6a9 223f 2645 e8be ed79 88be
00000080: 1322 36bf 2791 7b3e 1268 a73e 4dd3 013f
00000090: 497d dcbe 0c92 f93e 365d dc3d 458d 59bf
000000a0: e0b0 933d e879 563f 5b24 ad3e 4998 313e
000000b0: 420d bfbe fc75 a8bd 4372 6a3e 5c41 923d
000000c0: ad7b 12bf a716 043f e459 f23e 8c70 113f
000000d0: 18ec 653e e90f 2c3f 6d5d d73e 63c2 eebe
000000e0: 2d78 f5be 0ab1 3e3f 03dd 0b3f f630 ac3e
000000f0: 902d 3abf 23c2 06bf ec2a f53e ddf4 863e
00000100: 4cf1 c3bf 4a9b d03e 5c81 cc3e aca6 383f
00000110: e433 cebe e56f 3b3f 9639 543e 9b93 c0bf
00000120: 1ed0 0cbe 0b35 a23f b5e7 083f 3746 9a3e
00000130: 1a6c 4cbf c2dc 2ebf 7b74 fc3e b958 023f
00000140: 9da7 323e 0f0d 8b3e 035c cabd da30 8a3e
00000150: d92f 833e 45f0 40be f79e 06be 7fe3 f93c
00000160: 8c04 f9bd c1b6 16bf 0051 a4bd c89d 1b3e
00000170: 3cd1 493e 1006 a33c f68c 53be 6c99 b1be
00000180: 0f0e 8ebf c9fa 4a3f eff1 d53e d124 c33e
00000190: 390a 0abf 500b 413f a6bb 433e c40e a8bf
000001a0: 22ce 2abd 53c9 af3f 9590 073f 68c6 103f
000001b0: f181 3cbf 885b 2fbf f6a9 ab3e 8eec 3e3f
000001c0: 1cd7 3bbf 41d8 413f aaf9 443f 41fd 363f
000001d0: 9833 48bf 265a 553e 3d17 c43e 8c1c a5bf
000001e0: 3256 40be 787d 9e3f 4f5e ce3e 9aed 3d3f
000001f0: d76c 64bf 8f2e 0fbf 8ada 5d3e 96b3 1b3f
00000200: 643a fabe 8830 86bd a6b5 3bbd b587 193e
00000210: 9cfa 3bbe e41c 6c3c a1b3 3bbe 90d0 04bf
00000220: 0b95 a93e cb3e 2a3f 2f52 43bd d48f 453e
00000230: 3358 7ebe 0014 653e 349c b3bd c36b 483d
00000240: 777c 32bf 6574 5c3e 7efd cebc f18d 8b3e
00000250: b279 673e f0c4 1d3e eabd ef3c 27d6 24bf
00000260: 3075 af3c 04b7 8b3f add9 f03d dba2 053e
00000270: 26c1 b1be 073a b8be b92c 3dbd 55c0 b23e
00000280: 2c86 a4bf a620 a53e 31af 4c3e 07b4 093e
00000290: d1d4 cebe 4361 01be 57aa e93d 4197 c5bf
000002a0: e044 ce3d 4667 953f 1369 8ebb 61ff d03c
000002b0: d7a2 c7be 6161 79be 3b61 123e db4d cd3e
000002c0: 5ae9 003d b491 8f3e 5db1 993e 61cf e03e
000002d0: bc69 49bd 357e e9bc 7b3b 263f 0719 913d
000002e0: 01d1 82be 80c0 fbbe b145 653d 1d0e e9bd
000002f0: 823b 493e 453c 87bd c6fd c63e 3c5b 523e
00000300: 7c87 f23e 4446 03bf f196 e2be 2136 2fbe
00000310: 5c4c e7be 2942 8dbe 545b 89be 08b5 d23e
00000320: 383b 593e 1a10 c4be 7e64 8fbe ff6b bfbe
00000330: 2903 c13e 5612 213f 0335 72be 29ff 21bd
00000340: 4a0a 17bf 1fc6 393e fd0a 8abe ed1a 8ebe
00000350: eb9e 6ebe 2aef 93be 054d ffbd 8057 24bf
00000360: 9266 bf3e 7c93 653f 4641 a6be b49d c1bd
00000370: bfc4 c73e e713 2e3c d2e7 82bd 8d0d e1be
00000380: 2e3b 683e a977 493a 9134 ffbd bde8 83be
00000390: 22f8 1b3f 59bc 0bbe 0381 efbd 89b8 883e
000003a0: 4eb8 8bbd 0a6f 10bf 4637 a7be b362 a5be
000003b0: ef91 f33d 43f1 963e d65f c1bc 42df 95be
000003c0: f2ac cc3d 1f51 03be aea4 623e 3102 773d
000003d0: 56c1 ebbe c81f 0abe fbbd 63be 82a9 babe
000003e0: 9c66 cd3d 786a 94be 4dd3 a4bd 4e67 803d
000003f0: 3f36 46be 6612 ce3e 9b2b d23d 4011 59be

sender.cell.weight_hh f4 [48, 16]
0.02836437 0.31445184 0.117435426 0.2807585 0.23724954 -0.06465382 0.3501808 -0.3378498
-0.28074828 0.5731681 -0.14635101 -0.36211744 -0.44267875 0.19143721 0.06788862 -0.08394274
0.5175947 0.08336881 -0.19966953 0.15271924 -0.05169454 -0.12873226 0.4244697 -0.54088
-0.02495555 0.3290023 -0.6709485 -0.14301147 0.055280905 -0.102005914 0.04202597 0.38187575
0.4992508 -0.25650808 0.44537306 0.6686402 0.20787062 -0.8806055 0.1381722 -0.36561632
0.23258586 0.24898696 -0.17232856 0.35888857 -0.59849995 -0.21984166 -0.3090089 0.6547059
-0.15444775 -0.06094114 0.2639422 0.19326043 0.32358983 -0.6431048 -0.26444495 0.15005618
-0.1687149 0.58930755 0.38426998 0.13090606 -0.86849976 -0.21876091 -0.0830789 0.4373087
-0.19721514 0.39061216 -0.14916903 0.32316923 0.1428213 -0.6854861 0.08865935 -0.18178774
-0.5865317 0.23609486 -0.6782087 -0.13652995 -0.5432005 -0.033690363 0.16556905 0.13211204
0.50047725 -0.61806595 -0.18086089 0.017390937 -0.019303095 -0.79461974 0.7400111 -0.40469742
0.49220264 -0.42722315 -0.31199634 0.684062 -0.41107497 -0.59842306 -0.056982785 0.85346395
0.23054728 0.39130172 -0.0802242 0.6467299 0.6862196 -0.22379187 0.4131138 -0.12313507
-0.49630904 0.37105948 0.31845146 0.3024408 -0.60296065 0.32237375 0.22015442 0.9371916
0.07685939 0.22953278 0.18940781 0.64350486 0.5884583 -0.2978123 0.34532633 -0.1926118
-0.5344844 0.39008114 -0.36614987 0.015758945 -0.581655 -0.07662453 -0.13015556 0.6926994
0.1910448 -0.19958782 -0.10169734 0.23397282 -0.025410954 -0.035030425 0.43989334 -0.12959471
-0.045137025 0.3459441 -0.51626146 -0.20683682 -0.28615215 -0.25241977 0.17255253 0.0880285
0.16844419 0.6661904 0.05885399 -0.18287149 -0.1861941 0.19987817 0.13956276 0.0048503145
0.06771535 0.0835593 -0.6631711 -0.36974597 -0.56328356 -0.0978373 0.33889037 0.3161983
0.2118809 0.76888436 -0.06173364 0.18421523 -0.057782125 0.15703546 0.17936917 -0.45598176
-0.5553116 0.18985553 -0.23737812 -0.52257496 -0.059063636 0.16465378 0.55579317 -0.0071813925
0.34819776 -0.32315218 0.2882188 -0.2637622 -0.40155217 -0.20530544 0.5705353 -0.25221512
0.8026026 -0.5391704 -0.21298447 0.9722683 -0.37550774 -0.4819702 -0.3367138 0.67908144
0.043053456 0.010967618 -0.14843869 0.26349342 0.04328586 0.07757817 -0.26169905 -0.027150555
-0.13802524 0.1773283 -0.0793406 -0.30975926 -0.007521235 0.31419545 0.09672554 -0.54128987
0.07365653 -0.11756423 -0.018429266 0.15898517 0.09104904 -0.006553005 0.8114043 -0.3526833
0.014603539 0.28807932 -0.70659584 -0.14447835 -0.15433617 0.028459938 0.23059246 0.28667602
0.54313624 -0.71084374 -0.11916671 0.13863312 -0.09457287 -0.10096538 0.87299764 -0.27545062
0.277635 -0.2663107 -0.6287921 0.44411737 -0.37540853 -0.979114 0.003030009 1.1341407
0.05873437 0.12625287 -0.14797172 0.6046241 0.05577526 0.015202296 -0.11145941 0.2398792
-0.31576613 0.5825944 0.12009862 -0.19037852 -0.0770703 0.2840106 0.5672244 0.542072
00000000: 655c e83c d5ff a03e fc81 f03d 94bf 8f3e
00000010: 8bf1 723e 3969 84bd e64a b33e a6fa acbe
00000020: 3dbe 8fbe 25bb 123f 0add 15be 7567 b9be
00000030: caa6 e2be 1e08 443e 3009 8b3d 2cea abbd
00000040: 1681 043f 44bd aa3d 2b76 4cbe 6f62 1c3e
00000050: a7bd 53bd 64d2 03be 1854 d93e 1d77 0abf
00000060: 956f ccbc fd72 a83e 48c3 2bbf 9971 12be
00000070: 3b6e 623d 7ae8 d0bd 6c23 2c3d 3885 c33e
00000080: cd9d ff3e 0755 83be f007 e43e 012c 2b3f
00000090: 09dc 543e 5d6f 61bf 037d 0d3e 1032 bbbe
000000a0: fd2a 6e3e 70f6 7e3e e676 30be 3ec0 b73e
000000b0: 4b37 19bf 2c1e 61be 6a36 9ebe ce9a 273f
000000c0: 8d27 1ebe 6b9d 79bd 6f23 873e 10e6 453e
000000d0: 91ad a53e 84a2 24bf 5465 87be 54a8 193e
000000e0: 99c3 2cbe dcdc 163f 09bf c43e 3d0c 063e
000000f0: 0056 5ebf dc02 60be 4525 aabd ede6 df3e
00000100: c4f2 49be 51fe c73e c4bf 18be 7076 a53e
00000110: bf3f 123e 047c 2fbf 0993 b53d 9126 3abe
00000120: f126 16bf dac2 713e 169f 2dbf 82ce 0bbe
00000130: 300f 0bbf e8fe 09bd ef8a 293e 6148 073e
00000140: 471f 003f 9239 1ebf 9933 39be 7077 8e3c
00000150: 8621 9ebc 336c 4bbf 5e71 3d3f 8034 cfbe
00000160: fc01 fc3e febc dabe fcbd 9fbe b01e 2f3f
00000170: 6b78 d2be 4132 19bf c866 69bd 9d7c 5a3f
00000180: 9614 6c3e b358 c83e 964c a4bd 1790 253f
00000190: 16ac 2f3f b229 65be a783 d33e 3d2e fcbd
000001a0: 381c febe 82fb bd3e 120c a33e 85d9 9a3e
000001b0: a15b 1abf 2c0e a53e 2970 613e caeb 6f3f
000001c0: 7568 9d3d a40a 6b3e 1ff4 413e bcbc 243f
000001d0: 34a5 163f db7a 98be 9dce b03e 073c 45be
000001e0: f8d3 08bf b7b8 c73e ff77 bbbe e718 813c
000001f0: 58e7 14bf 52ed 9cbd 8047 05be bf54 313f
00000200: 40a1 433e c060 4cbe b246 d0bd 9296 6f3e
00000210: a22a d0bc 107c 0fbd b339 e13e 7ab4 04be
00000220: 9ae1 38bd 961f b13e b629 04bf 08cd 53be
00000230: 8982 92be 2a3d 81be 9cb1 303e 4948 b43d
00000240: a27c 2c3e 748b 2a3f e210 713d aa42 3bbe
00000250: aba9 3ebe ddac 4c3e 8ae9 0e3e 63ef 9e3b
00000260: 58ae 8a3d 2321 ab3d 95c5 29bf 584f bdbe
00000270: 5a33 10bf ec5e c8bd 0a83 ad3e bee4 a13e
00000280: 4ff7 583e 9bd5 443f 6adc 7cbd eba2 3c3e
00000290: f3ac 6cbd e7cd 203e 8dac 373e 7176 e9be
000002a0: e728 0ebf 7d69 423e 4013 73be 79c7 05bf
000002b0: b6ec 71bd 009b 283e 7648 0e3f e351 ebbb
000002c0: fa46 b23e 3474 a5be 6a91 933e d70b 87be
000002d0: 3f98 cdbe 973b 52be 9a0e 123f 5722 81be
000002e0: 5d77 4d3f 1207 0abf 9a18 5abe 93e6 783f
000002f0: 8d42 c0be ccc4 f6be c065 acbe 48d8 2d3f
00000300: d258 303d 86b1 333c 5000 18be 9ce8 863e
00000310: 844c 313d 4ee1 9e3d 6bfd 85be d76a debc
00000320: 7d56 0dbe 8d95 353e 537d a2bd c498 9ebe
00000330: b174 f6bb 3ade a03e 0a18 c63d f991 0abf
00000340: 3cd9 963d 84c5 f0bd f9f8 96bc 02cd 223e
00000350: eb77 ba3d 97ba d6bb 31b8 4f3f e892 b4be
00000360: af43 6f3c 227f 933e 77e3 34bf 22f2 13be
00000370: 4d0a 1ebe d124 e93c 6e20 6c3e 33c7 923e
00000380: fa0a 0b3f dbf9 35bf ad0d f4bd d7f5 0d3e
00000390: 6caf c1bd f0c6 cebd c67c 5f3f dd07 8dbe
000003a0: 2d26 8e3e e059 88be 85f8 20bf 5a63 e33e
000003b0: 8c35 c0be 37a7 7abf 1e93 463b 862b 913f
000003c0: 7393 703d 6f48 013e e685 17be a5c8 1a3f
000003d0: 9974 643d 0d13 793c d544 e4bd e5a2 753e
000003e0: 19ac a1be e824 153f 44f6 f53d 96f2 42be
000003f0: 09d7 9dbd d669 913e 9e35 113f 3bc5 0a3f

sender.cell.bias_ih f4 [48]
0.21941535 0.03452061 0.8875717 0.55835813 0.6827929 0.28648812 0.5921093 0.9662305
0.31736487 0.17057824 0.67131823 0.22858696 -0.3840152 -0.16236942 0.1585566 0.54985213
-0.66960984 -0.00096000213 -0.7419103 0.032333463 -0.11788027 -0.0762163 -0.6218241 -0.27103207
0.014050666 0.637373 -0.15392327 -0.034117524 0.20708597 -0.13805187 -0.42408827 -0.2916811
0.40783 -0.11130453 0.6318618 0.017177222 -0.037190676 -0.18447468 0.25451818 -0.088558175
0.40319824 -0.10877909 -0.09483607 0.4069242 -0.7520361 -0.26894033 -0.73066545 0.3241863
00000000: 6bae 603e 7c65 0d3d e637 633f 8ff0 0e3f
00000010: 84cb 2e3f 92ae 923e 7a94 173f e25a 773f
00000020: a67d a23e 10ac 2e3e 83db 2b3f b312 6a3e
00000030: a49d c4be 2b44 26be a95c 223e 1cc3 0c3f
00000040: 8d6b 2bbf a7a8 7bba d5ed 3dbf 1870 043d
00000050: 366b f1bd 4b17 9cbd dd2f 1fbf b7c4 8abe
00000060: c434 663c e02a 233f 109e 1dbe d1be 0bbd
00000070: 580e 543e 785d 0dbe 1922 d9be 3a57 95be
00000080: 18cf d03e a1f3 e3bd b2c1 213f 3fb7 8c3c
00000090: 4055 18bd eee6 3cbe 3550 823e fd5d b5bd
000000a0: 0070 ce3e 92c7 debd 6a39 c2bd 5e58 d03e
000000b0: 7085 40bf 8cb2 89be e40c 3bbf bffb a53e

sender.cell.bias_hh f4 [48]
0.26940852 0.34528732 1.2124399 0.6221378 0.52605116 0.26284802 0.65685713 0.70505965
0.5996167 0.224197 0.21122208 0.31298798 -0.27656987 0.061521307 0.39082333 0.63242954
-0.39280772 -0.06113779 -0.68142796 -0.2632651 0.035379764 0.07116587 -0.575691 -0.027505044
0.06201177 0.33329716 -0.5438817 -0.27665213 -0.001641818 0.016893975 -0.43645582 -0.29780924
0.023962006 -0.20978187 0.928666 0.516268 -0.15358782 -0.88221717 0.15357354 -0.13406412
0.26250482 0.15240543 -0.15147918 0.5243196 -0.16444306 -0.021238372 -0.9004003 0.056133907
00000000: eaef 893e 80c9 b03e 3b31 9b3f 6c44 1f3f
00000010: 4aab 063f 0494 863e ca27 283f ca7e 343f
00000020: 7b80 193f e693 653e 9a4a 583e f63f a03e
00000030: 919a 8dbe c4fd 7b3d ff19 c83e e7e6 213f
00000040: 181e c9be 9f6b 7abd 1072 2ebf afca 86be
00000050: 5fea 103d 69bf 913d 7c60 13bf 4252 e1bc
00000060: 0e00 7e3d eda5 aa3e d53b 0bbf 59a5 8dbe
00000070: 4532 d7ba 3c65 8a3c 2377 dfbe 747a 98be
00000080: f84b c43c 0fd1 56be 0ebd 6d3f 242a 043f
00000090: 2046 1dbe fcd8 61bf 6242 1d3e 1b48 09be
000000a0: 0867 863e 2b10 1c3e 5c1d 1bbe cf39 063f
000000b0: c363 28be 18fc adbc a280 66bf abec 653d

receiver.agent.output.weight f4 [1, 16]
0.3644379 0.47946808 0.25440335 0.34964964 -0.23472145 -0.20693612 0.38088074 -0.48446855
-0.2204845 0.208735 0.29731256 -0.29105833 0.3998835 -0.26444295 0.38233367 -0.1201725
00000000: 9b97 ba3e d77c f53e 2841 823e 4705 b33e
00000010: d25a 70be 10e7 53be cd02 c33e 430c f8be
00000020: b0c6 61be a1be 553e 5a39 983e 9905 95be
00000030: 88bd cc3e 1165 87be 3dc1 c33e 001d f6bd

receiver.cell.weight_ih f4 [48, 16]
0.59339225 0.17700168 0.030581668 0.53636146 0.048658203 -0.29640663 -0.32007116 0.6074439
0.41723475 -0.60558885 0.22972493 0.35378286 0.2248458 0.6856635 -0.9451873 -0.0155363735
0.39709824 -0.2841017 -0.372997 0.8934789 -0.34855145 0.08408354 -0.4204154 0.72010434
-0.03390208 -1.1961079 0.44779179 0.7285479 0.3266707 0.4304688 -1.1429058 -0.08740427
0.46822438 -0.056279607 0.09421266 2.0350735 0.1120938 0.1387764 -0.1737841 0.872443
0.30093697 -1.2387172 0.4230843 0.7980177 -0.3222781 0.6543551 -1.9367485 -0.046279736
0.3820857 -0.23705228 -0.046981614 0.70537055 -0.20055148 -0.07684067 -0.40565065 0.24355048
0.005412992 -0.74718046 0.5248313 0.706603 -0.33123425 0.29270074 -0.97612524 -0.49374747
-0.19049355 -0.46599331 -0.53874075 0.67860043 -0.551702 0.5870555 -0.008983981 0.34513816
-0.6035041 -0.73834324 0.71220046 0.6231905 -0.41692585 0.10158032 -0.6767133 -0.1106165
-0.36965063 0.008162228 -0.2510552 -0.37310773 0.054018836 0.03190723 -0.19621456 0.0014254228
-0.086090095 0.28955635 -0.0051352032 -0.21690415 -0.1288599 -0.33624178 0.28991407 -0.28017482
0.2943242 -0.3837558 -0.1066203 0.8770042 -0.10003341 0.31543055 -0.63390154 0.3137066
-0.1644697 -1.1215538 0.29077697 0.47033197 0.013872114 0.43533668 -1.3962692 -0.6300155
0.06665016 -0.20699687 -0.23947832 1.2155222 -0.54212403 0.26399276 -0.25593555 1.1848706
0.74166214 -0.8701935 0.60443014 1.1526815 0.047272775 0.42314118 -0.97950864 0.24893898
-0.15215157 -0.16080353 -0.3505264 0.4340796 -0.56850433 0.31443018 -0.3844946 0.49207407
0.10264838 -0.67959577 0.50185704 0.3572866 -0.50349337 -0.1091492 -0.6541665 -0.3229656
0.1317464 -0.07222369 -0.1612835 0.97059405 -0.06641746 0.0754926 -0.58298445 0.64257383
0.1193513 -0.60555935 0.27729857 0.3536589 -0.2744057 0.3348146 -1.0578264 -0.253295
-0.01892087 -0.5858849 -1.0474925 0.4364017 -0.81944776 0.37301934 -0.7526498 0.35017595
0.08839033 -0.86497337 1.0105351 0.30820858 -0.5579418 -0.30030927 -0.537105 0.22980309
0.6450604 0.36607677 -0.14559713 1.3745073 -0.08958873 -0.34495476 -0.28263906 0.79911166
0.76879716 -0.7775641 -0.020935416 0.7264598 -0.19641489 0.3803268 -1.8519669 0.5453613
0.12482038 -0.12038482 -0.45745432 0.56957364 -0.49696398 0.2097316 -0.48375162 0.5776433
-0.18291438 -0.39770734 0.24524301 0.53127426 -0.39825043 -0.009076326 -0.511796 0.015213218
-0.22414643 -0.43308017 -0.5564389 -0.090925045 -0.27432445 0.1401892 -0.22896808 0.24479762
-0.057768684 -0.1714998 0.35431182 -0.020737298 -0.055878527 0.16767016 0.028906267 -0.5328657
0.09157415 0.443578 -0.22085029 1.3107141 -0.108816795 0.24115478 -0.46716285 0.5528528
0.7868906 -0.8691989 0.45203152 0.6847602 -0.2707667 0.33245227 -1.4739733 -0.13022764
0.05131507 -0.13293321 -0.15462731 0.37668857 0.035313457 0.01619552 -0.36689872 0.54176205
0.06732775 -0.7824916 0.5525534 0.62058365 -0.29134813 0.21346472 -0.7146742 -0.5718832
00000000: 8ee8 173f ee3f 353e 6886 fa3c fc4e 093f
00000010: d34d 473d 9cc2 97be 5ee0 a3be 7281 1b3f
00000020: cb9f d53e df07 1bbf 033d 6b3e 0723 b53e
00000030: fa3d 663e a587 2f3f cbf7 71bf 468c 7ebc
00000040: 7650 cb3e c775 91be 76f9 bebe 08bb 643f
00000050: 5675 b2be fe33 ac3d b040 d7be c258 383f
00000060: e8dc 0abd 101a 99bf f744 e53e 1d82 3a3f
00000070: 6241 a73e 6866 dc3e bd4a 92bf 0301 b3bd
00000080: 1bbb ef3e 7285 66bd 91f2 c03d a53e 0240
00000090: 6f91 e53d 671b 0e3e 76f4 31be 6d58 5f3f
000000a0: 6914 9a3e 498e 9ebf 819e d83e e34a 4c3f
000000b0: a301 a5be d183 273f 60e7 f7bf d28f 3dbd
000000c0: bda0 c33e d5bd 72be cb6f 40bd 2a93 343f
000000d0: 5e5d 4dbe a45e 9dbd 71b1 cfbe 4c65 793e
000000e0: 785f b13b 3847 3fbf 585b 063f efe3 343f
000000f0: 8997 a9be dfdc 953e 58e3 79bf 78cc fcbe
00000100: be10 43be ad96 eebe eaea 09bf c2b8 2d3f
00000110: 583c 0dbf 4549 163f 8c31 13bc f3b5 b03e
00000120: 3f7f 1abf 1004 3dbf c552 363f 6a89 1f3f
00000130: 4e77 d5be 5809 d03d 153d 2dbf e78a e2bd
00000140: d942 bdbe deba 053c 4f8a 80be fa07 bfbe
00000150: db42 5d3d 28b1 023d 78ec 48be 41d5 ba3a
00000160: 0150 b0bd bb40 943e 3545 a8bb 1f1c 5ebe
00000170: daf3 03be e227 acbe 9e6f 943e 1373 8fbe
00000180: a9b1 963e a47b c4be be5b dabd 5983 603f
00000190: 51de ccbd 1d80 a13e 5f47 22bf 279e a03e
000001a0: bf6a 28be 138f 8fbf b8e0 943e 5acf f03e
000001b0: dd47 633c 73e4 de3e f3b8 b2bf b248 21bf
000001c0: e17f 883d fdf6 53be ce39 75be 3b96 9b3f
000001d0: a4c8 0abf 0f2a 873e fc09 83be d7a9 973f
000001e0: 92dd 3d3f 00c5 5ebf efbb 1a3f 118b 933f
000001f0: 19a1 413d f6a5 d83e 14c1 7abf dce9 7e3e
00000200: 9fcd 1bbe aea9 24be 3278 b3be ae3f de3e
00000210: 8089 11bf fefc a03e 7adc c4be 22f1 fb3e
00000220: 5039 d23d fdf9 2dbf b479 003f 45ee b63e
00000230: f1e4 00bf 9e89 dfbd 7577 27bf bf5b a5be
00000240: 87e8 063e 04ea 93bd 8027 25be da78 783f
00000250: e105 88bd dd9b 9a3d 783e 15bf b87f 243f
00000260: 746e f43d f005 1bbf 14fa 8d3e c812 b53e
00000270: e77e 8cbe d26c ab3e db66 87bf e2af 81be
00000280: f1ff 9abc 8efc 15bf 3c14 86bf 0b70 df3e
00000290: 54c7 51bf 64fc be3e a8ad 40bf 434a b33e
000002a0: fd05 b53d e56e 5dbf 3759 813f 84cd 9d3e
000002b0: 46d5 0ebf 23c2 99be b77f 09bf 8051 6b3e
000002c0: ae22 253f 6a6e bb3e 6a17 15be dbef af3f
000002d0: 4c7a b7bd e99d b0be 11b6 90be 9592 4c3f
000002e0: e4cf 443f 710e 47bf c080 abbc 45f9 393f
000002f0: fc20 49be 32ba c23e 400d edbf cc9c 0b3f
00000300: d4a1 ff3d 518c f6bd 7437 eabe 94cf 113f
00000310: 1072 febe e1c3 563e 4bae f7be 6ee0 133f
00000320: e84d 3bbe 4ca0 cbbe fc20 7b3e 9701 083f
00000330: 7be7 cbbe dfb4 14bc 1005 03bf dc40 793c
00000340: a486 65be afbc ddbe c872 0ebf e936 babd
00000350: 4174 8cbe c28d 0f3e 9c76 6abe 3aac 7a3e
00000360: db9e 6cbd a59d 2fbe 5c68 b53e 44e1 a9bc
00000370: e2e0 64bd bab1 2b3e d6cc ec3c e369 08bf
00000380: 3a8b bb3d a81c e33e 9426 62be 7bc5 a73f
00000390: 57db debd 47f1 763e f82f efbe c387 0d3f
000003a0: aa71 493f d283 5ebf ad70 e73e 724c 2f3f
000003b0: efa1 8abe 2f37 aa3e 28ab bcbf 655a 05be
000003c0: c02f 523d a51f 08be 9f56 1ebe 53dd c03e
000003d0: d8a4 103d 78ac 843c 26da bbbe ebb0 0a3f
000003e0: 22e3 893d 5f51 48bf 2474 0d3f 92de 1e3f
000003f0: 952b 95be 7f96 5a3e e3f4 36bf f066 12bf

receiver.cell.weight_hh f4 [48, 16]
-0.114361666 -0.34530196 0.08980183 -0.037360117 0.2836674 0.7286465 -0.2569593 -0.23488307
-0.3280353 0.321516 0.38077062 0.26391608 0.22842482 -0.273476 0.009029711 0.5447107
-0.07602457 -0.3746992 0.63524586 -0.3478933 0.39802682 0.65706944 -0.18812639 0.2690373
-0.38805646 0.27871224 0.64352536 0.19351885 0.32123068 -0.48694763 -0.3769372 0.18648393
0.042563286 0.0029407518 0.3415521 0.06929608 -0.009354875 0.4588732 -0.17180151 -0.17764717
-0.17298232 0.3184911 0.23603328 0.08724087 0.33871824 -0.5409091 -0.2934185 0.14264274
-0.095459 -0.5202416 0.31092936 -0.23926412 0.5662849 0.9439331 -0.1896651 0.12139639
-0.44165054 0.28129295 0.41388652 0.3618349 0.50360525 -0.20852032 -0.36120683 0.18689476
-0.26087528 0.01192307 0.20498863 -0.0013475996 -0.09558765 0.90520674 -0.24217856 -0.5041594
-0.81347644 0.4935473 0.8547756 -0.042254925 0.5379093 -0.8558986 -0.45806527 0.04674229
-0.3377847 -0.121650316 -0.23408203 -0.039861195 0.4879251 -0.7458501 -0.1872398 0.4078166
0.36353594 -1.0878968 -0.6409877 0.085889086 -1.3741086 0.1990407 0.142185 1.3673705
-0.08396935 -0.28321102 -0.20094863 -0.23278612 0.423559 0.93124217 -0.039279252 -0.04210537
-0.45020196 0.4740636 0.39628714 0.3463302 0.40562627 -0.8354918 -0.17877732 0.28557205
-0.68534184 -0.7825584 -0.1488586 -0.5511315 0.71987444 1.1728805 -0.7322108 0.17713307
-0.32438722 0.6136643 0.22950268 0.8839258 0.12472368 -0.61797005 -0.7889812 0.47009227
-0.14689417 -0.6612481 0.1019481 -0.53318644 0.46514708 0.68103606 -0.5042562 0.00066040375
-0.260913 0.41823804 0.2643935 0.39531845 0.22668271 -0.06736489 -0.33576092 0.23317136
-0.065621786 -0.4157855 0.42467585 0.15505838 0.1704091 0.42264548 0.13678625 0.22265281
-0.75747454 0.3624402 0.50375164 -0.1556319 0.35460004 -0.8611638 0.054886658 0.04871654
-0.35150674 -0.9109189 0.08557082 -0.81398493 0.13194829 0.037885133 -0.40668482 0.45168534
-0.46295178 0.6144875 0.10299156 0.4884 -0.008820994 -0.24865332 -0.7347086 0.26907766
-0.20243196 -0.042605948 0.025306024 -0.18663955 0.08757347 0.69982445 -0.2319866 -0.19981796
-0.28548494 0.14496756 0.1385224 0.027535414 0.22475418 -0.26223022 -0.27985466 0.32238606
0.095416 -0.20664176 0.32474294 -0.10346445 -0.26905912 0.35161373 -0.13372375 -0.006813572
-0.6406991 0.68947685 0.3623109 0.09374522 0.6864256 -0.88550484 0.019682838 -0.68226814
0.12182292 0.038155634 0.18013558 -0.19802335 -0.015095837 -0.34662035 0.030001435 -0.054054588
-0.14901476 0.2123184 0.0022461945 -0.020124737 -0.0089621795 0.1869118 -0.0872935 0.2535694
-0.12002581 -0.2338778 0.25253016 0.038948726 0.05723851 0.627253 -0.06770806 -0.052245267
-0.6679223 0.24085073 0.33607107 -0.17048286 0.35390756 -0.7216539 -0.21135461 0.015572355
-0.47128817 -0.35342714 0.07455052 -0.100289315 0.49805504 0.99290603 -0.27257082 0.15031154
-0.5161612 0.44895083 0.18330333 -0.101550534 0.37699226 -0.5064145 -0.28090096 0.18179406
00000000: 7336 eabd 6bcb b0be 06ea b73d ec06 19bd
00000010: da3c 913e 9488 3a3f 2b90 83be 3085 70be
00000020: 3ef4 a7be bf9d a43e 5ef4 c23e 0220 873e
00000030: 32e8 693e 0c05 8cbe 5af1 133c 2972 0b3f
00000040: c5b2 9bbd 93d8 bfbe 799f 223f 121f b2be
00000050: 2cca cb3e b435 283f 34a4 40be 42bf 893e
00000060: 56af c6be 5fb3 8e3e 14be 243f ce29 463e
00000070: 5978 a43e 3351 f9be eafd c0be a5f5 3e3e
00000080: d756 2e3d a1b9 403b ebdf ae3e 1aeb 8d3d
00000090: 3145 19bc 6ef1 ea3e bcec 2fbe 24e9 35be
000000a0: 4722 31be 4411 a33e b5b2 713e 57ab b23d
000000b0: 7a6c ad3e 0579 0abf f33a 96be f010 123e
000000c0: 0280 c3bd 8e2e 05bf 2232 9f3e a701 75be
000000d0: 0cf8 103f 9aa5 713f 9137 42be ac9e f83d
000000e0: 0520 e2be a105 903e efe8 d33e 6d42 b93e
000000f0: 46ec 003f 5a86 55be 1af0 b8be 5761 3f3e
00000100: 7291 85be fb58 433c 8ae8 513e f0a1 b0ba
00000110: 75c3 c3bd a1bb 673f a8fd 77be 9710 01bf
00000120: fe3f 50bf 3bb2 fc3e 93d2 5a3f 8013 2dbd
00000130: 6db4 093f 2c1c 5bbf 8887 eabe d874 3f3d
00000140: 1ef2 acbe cd23 f9bd 33b3 6fbe 7e45 23bd
00000150: 52d1 f93e 08f0 3ebf cabb 3fbe 56cd d03e
00000160: 6221 ba3e 3440 8bbf c517 24bf 9ee6 af3d
00000170: cae2 afbf 53d1 4b3e f298 113e ff05 af3f
00000180: 1ff8 abbd 0901 91be 7ac5 4dbe 7c5f 6ebe
00000190: badc d83e e365 6e3f 48e3 20bd ae76 2cbd
000001a0: df80 e6be 77b8 f23e 26e6 ca3e 3152 b13e
000001b0: 3fae cf3e cae2 55bf 6711 37be 8036 923e
000001c0: 9072 2fbf bf55 48bf 646e 18be f416 0dbf
000001d0: b149 383f f320 963f 2b72 3bbf 5f62 353e
000001e0: 1516 a6be 1b19 1d3f c002 6b3e f648 623f
000001f0: 216f ff3d 4933 1ebf acfa 49bf efaf f03e
00000200: 6d6b 16be 8e47 29bf 2aca d03d e87e 08bf
00000210: c227 ee3e 6158 2e3f ef16 01bf f21e 2d3a
00000220: 6496 85be 4c23 d63e 965e 873e 2e67 ca3e
00000230: 831f 683e 9af6 89bd dbe8 abbe 79c4 6e3e
00000240: b764 86bd d6e1 d4be 1d6f d93e a0c7 1e3e
00000250: b97f 2e3e fd64 d83e b211 0c3e 19ff 633e
00000260: dae9 41bf c391 b93e def5 003f f85d 1fbe
00000270: 238e b53e 3b75 5cbf d5d0 603d ff8a 473d
00000280: b1f8 b3be fb31 69bf c13f af3d 5161 50bf
00000290: 741d 073e 712d 1b3d fe38 d0be 4d43 e73e
000002a0: 0408 edbe 0e4f 1d3f 3ded d23d 910f fa3e
000002b0: ee85 10bc fa9e 7ebe dd15 3cbf 8cc4 893e
000002c0: 534a 4fbe 9383 2ebd 944e cf3c 701e 3fbe
000002d0: b859 b33d b227 333f e58d 6dbe 149d 4cbe
000002e0: 152b 92be 6072 143e d1d8 0d3e f391 e13c
000002f0: f625 663e 0a43 86be 1c49 8fbe c90f a53e
00000300: 7769 c33d e699 53be b544 a63e 2be5 d3bd
00000310: 1ec2 89be b706 b43e e1ee 08be 6244 dfbb
00000320: db04 24bf 8e81 303f d080 b93e 7efd bf3d
00000330: 97b9 2f3f 72b0 62bf e73d a13c 20a9 2ebf
00000340: 4c7e f93d 1549 1c3d 7675 383e a2c6 4abe
00000350: 8854 77bc 3978 b1be 92c5 f53c 5868 5dbd
00000360: 5397 18be ff69 593e e434 133b a2dc a4bc
00000370: 1bd6 12bc cf65 3f3e efc6 b2bd d9d3 813e
00000380: 18d0 f5bd a97d 6fbe a24b 813e b388 1f3d
00000390: ee72 6a3d a793 203f 86aa 8abd 22ff 55bd
000003a0: f5fc 2abf 93a1 763e 8211 ac3e 0f93 2ebe
000003b0: 5f33 b53e 4fbe 38bf 586d 58be 3123 7f3c
000003c0: af4c f1be 67f4 b4be f1ad 983d 7c64 cdbd
000003d0: 1201 ff3e 172f 7e3f 678e 8bbe 45eb 193e
000003e0: 2423 04bf e2dc e53e deb3 3b3e baf9 cfbd
000003f0: 2105 c13e 61a4 01bf 40d2 8fbe 3928 3a3e

receiver.cell.bias_ih f4 [48]
-0.29069725 -0.59349096 -0.3629001 -0.058153454 -0.35280418 0.4109342 -0.1760365 -1.148674
-0.60682166 -0.478931 -0.29787233 -0.05734455 -0.40363866 -0.11376988 -0.15173152 -0.20543955
0.3917786 -0.008861943 1.0153438 0.7363886 0.6398857 -0.021561343 0.25299802 0.060669247
0.42916635 0.31423065 -0.050856818 0.55656743 -0.07009715 0.37278527 0.39666057 0.9103249
0.31176934 0.41608557 -0.08238261 0.31247246 -0.07468272 -0.41504014 0.30002636 0.027597932
0.10328883 -0.093169354 -0.18357535 -0.18071306 -0.20763245 0.33445674 0.18725377 0.0012958503
00000000: 45d6 94be 06ef 17bf 0bce b9be 5132 6ebd
00000010: c0a2 b4be f865 d23e ea42 34be c007 93bf
00000020: aa58 1bbf 7236 f5be b982 98be 1ee2 6abd
00000030: baa9 cebe 2f00 e9bd 825f 1bbe bf5e 52be
00000040: 3497 c83e af31 11bc c9f6 813f f783 3c3f
00000050: 8dcf 233f 6aa1 b0bc f588 813e 5180 783d
00000060: b1bb db3e d7e2 a03e 3d4f 50bd 347b 0e3f
00000070: 188f 8fbd b6dd be3e 1817 cb3e 0d0b 693f
00000080: 3ba0 9f3e 2b09 d53e 37b8 a8bd 64fc 9f3e
00000090: 41f3 98bd 2480 d4be 0e9d 993e 0f15 e23c
000000a0: 1889 d33d 93cf bebd 2dfb 3bbe d80c 39be
000000b0: 9a9d 54be ea3d ab3e 74bf 3f3e 85d9 a93a

receiver.cell.bias_hh f4 [48]
-0.45027715 -0.35456112 -0.40987787 -0.28615272 -0.6812921 0.041691985 -0.30434012 -0.97732884
-0.3995066 -0.42043626 -0.47439405 -0.14074744 -0.54333663 -0.09317838 -0.48002058 -0.31879556
0.14639702 0.23741965 0.86866254 0.36656398 0.38933092 0.11264527 0.25329107 0.21638419
0.44199643 0.5301018 -0.066504374 0.41090196 0.2795433 0.36105663 0.28257018 0.7146035
0.032640256 -0.030189944 0.012874633 0.17764461 -0.19238408 -0.5045872 0.180705 0.04717287
0.1928383 -0.27418938 -0.058994647 -0.1033498 -0.1507692 0.061434276 -0.036877617 0.0072908457
00000000: ba8a e6be 0989 b5be 83db d1be 9c82 92be
00000010: 2969 2ebf 37c5 2a3d 78d2 9bbe 3932 7abf
00000020: 218c ccbe 6c43 d7be c7e3 f2be 1920 10be
00000030: 1c18 0bbf 4ed4 bebd 42c5 f5be 2c39 a3be
00000040: 1ae9 153e 231e 733e ab60 5e3f 46ae bb3e
00000050: 6256 c73e 90b2 e63d 5eaf 813e d193 5d3e
00000060: 5b4d e23e c0b4 073f 7233 88bd be61 d23e
00000070: 4d20 8f3e 6adc b83e 0aad 903e 41f0 363f
00000080: cab1 053d e750 f7bc 20f0 523c 78e8 353e
00000090: 5500 45be a02c 01bf bb0a 393e 5738 413d
000000a0: 6777 453e 8d62 8cbe 5fa4 71bd 0fa9 d3bd
000000b0: 3e63 1abe 82a2 7b3d fc0c 17bd 0ce8 ee3b
